AIPicture/back/src/main/java/org/app/Python/srcnn/weights-file/srcnn_x3.pth (torch_old, 230278 bytes, 5 tensors)

conv1.weight f4 [64, 1, 9, 9]
-0.057957876 0.13718733 0.05191205 0.11995438 -0.061507948 0.06669061 -0.070531346 -0.1560435
-0.008695083 0.09465327 0.0817568 0.08683292 -0.09484037 -0.08514232 -0.06018761 -0.010628616
-0.1732891 0.07424786 -0.033299692 0.05898508 0.01928566 -0.04645086 -0.002233552 0.11011128
-0.011212933 -0.043274183 -0.090930685 0.010352323 0.011872099 -0.23585117 0.03823533 0.07040295
0.08507909 0.11943447 0.06358621 -0.06503011 -0.11420042 -0.064599566 -0.13431346 0.07893833
0.08709129 -0.009463347 0.0627177 0.13294618 -0.004598265 0.027752701 0.010214869 0.020326551
0.1882249 0.08506185 -0.07691859 -0.053677633 -0.004284058 0.028359257 -0.0077523002 -0.11874417
-0.1126516 0.14233252 -0.0064707245 -0.21562755 -0.03580233 0.14194736 -0.033524066 -0.019402632
-0.05745517 -0.06830213 -0.019119423 -0.004256378 -0.1649831 0.061993096 0.18453792 0.1346913
0.062127657 -0.06514669 -0.041590277 -0.03557798 0.061180964 -0.09496414 0.036450345 0.09750334
-0.026837943 0.018469831 0.009189773 -0.0020153043 -0.09929501 -0.06334026 -0.05204241 0.10127374
0.029053135 -0.07794903 -0.043058645 0.109200686 0.07252339 0.05478247 -0.040239662 0.044280075
0.12322241 0.08026685 0.036628153 -0.041733548 0.033304974 -0.12633365 -0.05026058 -0.068807766
-0.011517597 -0.05379104 -0.063328534 0.0072084796 0.030185204 -0.037597124 0.08753926 -0.041693933
0.13443674 0.060866583 0.003618317 0.00432684 -0.077939905 -0.04693458 -0.026757784 0.08252396
-0.023209864 0.09365749 0.13960941 -0.055859692 0.09023225 -0.058790915 0.023187425 0.0172189
0.060680315 0.13546667 0.003630652 0.03361338 -0.0025461768 -0.06015616 0.009744909 -0.09251748
-0.025418786 -0.06758103 -0.07007709 -0.12804922 -0.121522985 -0.13985597 -0.03339836 0.05190895
-0.014253902 -0.12579575 -0.16827632 -0.068621226 -0.17127644 -0.21143429 -0.19228774 -0.12638171
-0.065072216 0.15573755 0.06450926 0.12688516 0.09450141 0.26394907 0.14102149 0.23678154
0.11236953 0.14464402 0.02612886 0.13558893 0.1828352 0.31444582 0.25193283 0.23870231
0.12332115 0.03631546 0.0042451713 -0.059003856 -0.09044882 -0.16536066 -0.24627517 -0.22272612
-0.21909584 -0.108184375 -0.016309062 -0.04988678 0.044477697 0.004592003 -0.031567954 -0.23822287
-0.21873227 -0.10347721 -0.067746155 0.01445542 0.054582886 -0.03534627 0.0058600535 -0.03932769
0.10063422 0.16821648 0.017413389 0.062708214 0.091186605 -0.013385627 0.04507734 0.025523016
-0.026411088 0.02402668 0.079885036 0.0037178658 -0.05553209 -0.022186281 -0.023151346 -0.027666403
0.004983042 0.09948088 0.021075293 0.06726144 0.09828726 -0.046240326 0.009609117 -0.048916347
0.02558623 -0.06218537 -0.0050082523 0.007498529 -0.08238007 -0.091591746 0.034117214 -0.045089524
0.05590961 -0.035847027 0.018716296 -0.06369725 0.05125683 0.03410958 -0.003303663 -0.0028821046
-0.05173052 0.05613532 0.02541381 -0.03509013 0.039820816 -0.024246937 -0.076859795 0.052995402
0.041711703 -0.00049964024 -0.042037692 0.040399034 0.10109428 0.042361043 -0.10595832 -0.061519355
0.086272426 -0.022128198 0.0023183757 -0.06790921 0.04825377 -0.099048555 -0.06899273 -0.05289189
00000000: 3d65 6dbd d67a 0c3e bba1 543d a4aa f53d
00000010: c2ef 7bbd 1695 883d bd72 90bd dec9 1fbe
00000020: d275 0ebc 93d9 c13d 1c70 a73d 75d5 b13d
00000030: ab3b c2bd 195f aebd 4987 76bd a623 2ebc
00000040: b372 31be 430f 983d 4265 08bd 579a 713d
00000050: f6fc 9d3c 4243 3ebd c960 12bb 0682 e13d
00000060: 73b6 37bc 4540 31bd de39 babd ca9c 293c
00000070: 3183 423c f882 71be a69c 1c3d 6c2f 903d
00000080: f23d ae3d 0f9a f43d 7d39 823d 822e 85bd
00000090: e9e1 e9bd c74c 84bd 7889 09be 6baa a13d
000000a0: eb5c b23d 270c 1bbc 2372 803d 0b23 083e
000000b0: 0bad 96bb a259 e33c 445c 273c de83 a63c
000000c0: 07be 403e e834 ae3d 7e87 9dbd 14dd 5bbd
000000d0: 4961 8cbb ac51 e83c 0207 febb 2530 f3bd
000000e0: e2b5 e6bd 9ebf 113e 5f08 d4bb 78cd 5cbe
000000f0: 77a5 12bd a65a 113e 8850 09bd 45f2 9ebc
00000100: 1d56 6bbd fde1 8bbd 56a0 9cbc 1679 8bbb
00000110: 54f1 28be 79ec 7d3d 82f7 3c3e 84ec 093e
00000120: 9279 7e3d a16b 85bd 915a 2abd 37ba 11bd
00000130: e498 7a3d 8f7c c2bd f54c 153d d5af c73d
00000140: 3fdb dbbc 0b4e 973c b490 163c 3213 04bb
00000150: 2f5b cbbd 8ab8 81bd 6c2a 55bd 9b68 cf3d
00000160: d700 ee3c bea3 9fbd 435e 30bd 9ca4 df3d
00000170: 2587 943d 9563 603d 58d2 24bd 065f 353d
00000180: 085c fc3d f262 a43d 6707 163d ccf0 2abd
00000190: cc6a 083d 9c5d 01be 0ade 4dbd 16eb 8cbd
000001a0: 4eb4 3cbc fe53 5cbd 64b2 81bd 1c35 ec3b
000001b0: f646 f73c 71ff 19bd c947 b33d 42c7 2abd
000001c0: c9a9 093e 3d4f 793d 4921 6d3b 2ac8 8d3b
000001d0: f59e 9fbd 793e 40bd 2433 dbbc 5202 a93d
000001e0: 9d22 bebc 80cf bf3d c5f5 0e3e 22cd 64bd
000001f0: b0cb b83d bece 70bd 8ef3 bd3c a70e 8d3c
00000200: ec8b 783d c6b7 0a3e 3cf0 6d3b 2fae 093d
00000210: c2dd 26bb 4e66 76bd 1ca9 1f3c ce79 bdbd
00000220: 0f3b d0bc ec67 8abd 9484 8fbd 561f 03be
00000230: 0be1 f8bd 6736 0fbe b8cc 08bd 7b9e 543d
00000240: 3389 69bc 9ad0 00be a150 2cbe 4989 8cbd
00000250: 1763 2fbe 3b82 58be 14e7 44be 356a 01be
00000260: 9544 85bd aa79 1f3e 6e1d 843d 2fee 013e
00000270: f589 c13d 5524 873e f067 103e dc76 723e
00000280: ff21 e63d 901d 143e 310c d63c d3d7 0a3e
00000290: 2739 3b3e 0bff a03e 57fd 803e 616e 743e
000002a0: cd8f fc3d 85bf 143d 141b 8b3b 07ae 71bd
000002b0: 3b3d b9bd 4e54 29be 8f2f 7cbe 5112 64be
000002c0: a95a 60be c58f ddbd 959a 85bc 1556 4cbd
000002d0: 3f2e 363d 8378 963b 664d 01bd b2f0 73be
000002e0: 5afb 5fbe dceb d3bd 7fbe 8abd 6dd6 6c3c
000002f0: 4e92 5f3d 40c7 10bd b105 c03b 1216 21bd
00000300: 5019 ce3d f140 2c3e 86a6 8e3c 2a6d 803d
00000310: 0bc0 ba3d 644f 5bbc 04a3 383d a515 d13c
00000320: 115c d8bc 9ad3 c43c c49a a33d 70a7 733b
00000330: 9e75 63bd 01c0 b5bc e4a7 bdbc a7a4 e2bc
00000340: c948 a33b a2bc cb3d 18a6 ac3c 5ec0 893d
00000350: d54a c93d 7f66 3dbd 8f6f 1d3c 825c 48bd
00000360: 379a d13c 16b6 7ebd 441c a4bb 38b6 f53b
00000370: e2b6 a8bd 7494 bbbd 7ebe 0b3d cbaf 38bd
00000380: 7a01 653d 55d4 12bd eb52 993c b473 82bd
00000390: aff2 513d 7db6 0b3d 4582 58bb b1e1 3cbb
000003a0: 62e3 53bd 26ee 653d 9f30 d03c abba 0fbd
000003b0: 271b 233d 83a1 c6bc ab68 9dbd b511 593d
000003c0: e4d9 2a3d 4afa 02ba b72f 2cbd 7579 253d
000003d0: 850a cf3d c682 2d3d ad00 d9bd b8fb 7bbd
000003e0: 99af b03d 3246 b5bc e4ef 173b fc13 8bbd
000003f0: bfa5 453d f8d9 cabd 0f4c 8dbd 2ba5 58bd

conv1.bias f4 [64]
-0.03634627 -0.006391166 0.021869587 -0.006866809 0.0646625 0.018230597 0.059198666 -0.0047527216
0.13430576 0.0039162436 -0.017941207 0.016538713 -0.2625653 0.17328729 0.08516891 0.0018899771
-0.006418288 -0.034863003 0.12619776 0.019142652 0.030173643 0.0149075035 -0.03108363 0.0031525332
-0.011284388 0.025837827 0.00047944314 -0.017164052 0.004936755 0.011403889 0.32623526 0.016471596
0.039350454 -0.0012208945 0.017348357 -0.06725299 0.002330973 0.07245074 0.026487196 0.06663081
-0.00497387 -0.005016997 0.098408595 0.034556236 0.023092536 -0.0030135436 -0.009987029 -0.00614643
0.012858593 -0.025301686 -0.0033558712 0.040494904 0.020392824 -0.015479045 0.028320935 0.02484179
0.020206949 -0.028476777 0.010909134 0.022832489 0.039598968 -0.09626678 -0.01845053 -0.060102355
00000000: d4df 14bd fc6c d1bb d927 b33c f802 e1bb
00000010: c66d 843d 5558 953c 4d7a 723d b8bc 9bbb
00000020: 7387 093e d553 803b 70f9 92bc 327c 873c
00000030: f66e 86be 3972 313e 0a6d ae3d 1cb9 f73a
00000040: 8150 d2bb 82cc 0ebd fc39 013e 0dd1 9c3c
00000050: b72e f73c 9a3e 743c 19a3 febc bb9a 4e3b
00000060: 27e2 38bc daa9 d33c c55d fb39 a09b 8cbc
00000070: 81c4 a13b 61d7 3a3c 4f08 a73e 71ef 863c
00000080: f12d 213d 6c06 a0ba 241e 8e3c f0bb 89bd
00000090: 3dc3 183b 0e61 943d adfb d83c bc75 883d
000000a0: d8fb a2bb 9f65 a4bb 728a c93d d78a 0d3d
000000b0: 8f2c bd3c df7e 45bb a3a0 23bc fe67 c9bb
000000c0: d9ac 523c 7b45 cfbc 2dee 5bbb fcdd 253d
000000d0: da0e a73c d29b 7dbc 4e01 e83c 0281 cb3c
000000e0: 0b89 a53c 2148 e9bc 39bc 323c 330b bb3c
000000f0: 8732 223d 8427 c5bd 9125 97bc e32d 76bd

conv2.weight f4 [32, 64, 5, 5]
0.009850929 0.032341216 -0.004516262 -0.0055771708 -0.18682982 0.0036830676 0.02104841 0.064527646
0.010794876 -0.04021116 -0.02060984 -0.022778822 0.09331956 -0.0270912 -0.098142676 -0.05088585
-0.095472455 -0.06220518 -0.046652127 0.06048666 0.016602939 0.017541016 -0.058943737 0.027369926
-0.005932345 -0.039518468 0.07513389 0.055744644 0.025577292 -0.019290632 0.043228474 0.07982571
0.082816586 0.058034685 0.022202667 0.09051563 0.017273925 0.00998065 -0.062299572 -0.009871743
0.08883825 0.0065963217 -0.050822694 0.051193416 0.12213985 -0.16346762 -0.1507013 -0.21228947
-0.13610385 -0.16575818 -0.2790135 -0.33286917 -0.38649687 -0.21336931 -0.14191566 0.030543618
-0.056264296 -0.097566284 0.041435868 0.051832672 0.13353738 0.048677765 0.01012278 0.06779632
0.034052987 0.12981819 0.17170843 0.15415756 0.15029882 0.108307965 -0.019823365 0.033640876
0.0106846215 -0.065708145 -0.0909812 -0.102398925 -0.08641274 -0.09020304 -0.11011111 -0.14152978
0.041347373 0.019558994 0.058764156 0.05466653 0.06578276 0.013442255 -0.12387914 -0.0824083
0.034803994 0.025597768 0.0022957993 -0.0035724875 -0.00821276 0.033997864 0.008745596 0.024179142
0.058330227 0.07532423 0.041245345 0.019696727 0.077030614 0.01388188 0.08560601 0.073022895
0.034807265 -0.06875003 -0.044743475 0.026586287 -0.0037003106 -0.07118442 0.05430736 0.008889462
0.07732964 0.029509408 -0.076219015 -0.033964146 -0.0109453285 -0.027060183 0.02901113 0.0261331
-0.09081844 -0.06844347 -0.08213285 -0.07485608 -0.03211475 0.25671136 0.13370353 -0.07056521
0.023754748 -0.08725472 0.0043769614 0.014037064 -0.073838174 -0.1454357 -0.109880395 -0.051516633
0.05132575 0.072833255 -0.07478786 0.031183913 0.012812324 0.091176696 0.103585385 -0.026490657
-0.022041269 0.0022290275 -0.057998523 -0.09472524 -0.095456444 -0.124124095 -0.02234707 0.03057255
0.024060862 0.030274356 -0.020395987 0.034844972 0.027431803 -0.001991469 -0.04076833 -0.12870555
0.0052879727 -0.031422865 -0.06452099 -0.07751378 -0.14068519 0.050334334 0.09462546 -0.011206428
0.010796099 0.182394 0.03431638 0.08811831 0.015879227 -0.048224535 0.016698848 -0.006979627
0.02968577 0.11467528 0.06037342 -0.01950722 0.16248032 0.036078442 0.03779749 0.019957205
-0.00185566 0.07239484 0.059495147 -0.03174696 -0.0048868908 0.09069009 0.11376728 0.13134074
0.08163773 0.051924113 0.13547409 0.40303865 0.2736834 0.10314731 -0.09725558 0.03265042
-0.068116285 -0.0093888035 -0.020482177 0.05429118 0.046513245 0.035017133 0.0031215155 -0.014199898
0.031636924 0.06018445 -0.03812851 -0.101916686 -0.12505949 -0.09805376 -0.025917951 0.077182464
-0.052856527 -0.065727904 -0.082296096 -0.0017256332 0.036596075 0.10715766 0.09422897 -0.016630758
-0.0061047734 0.027088556 0.0045956946 0.012167081 0.03868 0.0031172417 -0.08622487 -0.05206928
0.01746652 0.005623981 -0.06692866 -0.09753353 -0.12152385 -0.081655666 -0.045226272 -0.04374121
-0.04325646 -0.03656269 0.010799195 0.02185602 0.0269301 -0.06263649 -0.019400688 0.016685558
0.051773984 0.080273606 -0.045233496 -0.05948196 -0.027653692 0.0009441383 0.02905111 -0.008623854
00000000: ca65 213c 3978 043d 27fd 93bb b3c0 b6bb
00000010: 5150 3fbe 9f5f 713b b76d ac3c 1227 843d
00000020: fedc 303c 75b4 24bd f8d5 a8bc a79a babc
00000030: 531e bf3d 5dee ddbc 07ff c8bd ae6d 50bd
00000040: 1087 c3bd dcca 7ebd 4d16 3fbd dcc0 773d
00000050: e302 883c 2db2 8f3c fd6e 71bd e536 e03c
00000060: 1e64 c2bb 1ede 21bd ccdf 993d 7f54 643d
00000070: 7887 d13c 6307 9ebc 5710 313d a97b a33d
00000080: be9b a93d c7b5 6d3d 5ee2 b53c 4260 b93d
00000090: 0c82 8d3c e185 233c d62d 7fbd 17bd 21bc
000000a0: d4f0 b53d f525 d83b 752b 50bd 30b0 513d
000000b0: 7524 fa3d 0e64 27be 7151 1abe 6962 59be
000000c0: cf5e 0bbe 83bc 29be dcda 8ebe d46d aabe
000000d0: ebe2 c5be 7c7d 5abe 5752 11be 9c36 fa3c
000000e0: 6475 66bd d5d0 c7bd a8b8 293d 7f4e 543d
000000f0: 06be 083e 5662 473d 04da 253c ccd8 8a3d
00000100: 257b 0b3d 0fef 043e 56d4 2f3e 7bdb 1d3e
00000110: efe7 193e 91d0 dd3d 9c64 a2bc 04cb 093d
00000120: 8d0e 2f3c fe91 86bd 5a54 babd 87b6 d1bd
00000130: 2af9 b0bd 5fbc b8bd ef81 e1bd 2fed 10be
00000140: dd5b 293d 2f3a a03c afb2 703d 03ea 5f3d
00000150: 1db9 863d e73c 5c3c 59b4 fdbd afc5 a8bd
00000160: a28e 0e3d 69b2 d13c 1f75 163b 6520 6abb
00000170: d08e 06bc 5841 0b3d b049 0f3c 5613 c63c
00000180: adeb 6e3d 9743 9a3d e1f0 283d 085b a13c
00000190: 3ac2 9d3d d370 633c 3452 af3d 078d 953d
000001a0: 1092 0e3d d1cc 8cbd ef44 37bd 7ccb d93c
000001b0: e980 72bb 23c9 91bd 6571 5e3d 1ba5 113c
000001c0: 015f 9e3d b7bd f13c b718 9cbd fd1d 0bbd
000001d0: 0954 33bc 51ad ddbc c0a8 ed3c 1515 d63c
000001e0: 05ff b9bd 172c 8cbd 4535 a8bd 254e 99bd
000001f0: c28a 03bd ac6f 833e 94e9 083e 7e84 90bd
00000200: 5199 c23c 9ab2 b2bd 9d6c 8f3b b7fb 653c
00000210: 7838 97bd 19ed 14be f908 e1bd 1b03 53bd
00000220: f33a 523d 9a29 953d 612a 99bd 6875 ff3c
00000230: c8ea 513c d9ba ba3d 9324 d43d ef02 d9bc
00000240: e48f b4bc e014 123b dc8f 6dbd 4eff c1bd
00000250: ab7e c3bd c634 febd 3411 b7bc 4973 fa3c
00000260: 491b c53c ed01 f83c 7c15 a7bc 9ab9 0e3d
00000270: a9b8 e03c 4e83 02bb b1fc 26bd 63cb 03be
00000280: bb46 ad3b 43b5 00bd 9523 84bd 8bbf 9ebd
00000290: c70f 10be 602b 4e3d feca c13d 2a9b 37bc
000002a0: 1fe2 303c 7ec5 3a3e 558f 0c3d 5f77 b43d
000002b0: 2715 823c 1787 45bd 06cc 883c 5bb5 e4bb
000002c0: 922f f33c e0da ea3d 1f4a 773d 9bcd 9fbc
000002d0: 3e61 263e fdc6 133d 8ad1 1a3d 4b7d a33c
000002e0: 9e39 f3ba bf43 943d 2fb1 733d 1a09 02bd
000002f0: 3622 a0bb babb b93d d2fe e83d 307e 063e
00000300: af31 a73d 61ae 543d b8b9 0a3e 155b ce3e
00000310: 3b20 8c3e e63e d33d ef2d c7bd 72bc 053d
00000320: 8d80 8bbd 7fd3 19bc 3dca a7bc 6e60 5e3d
00000330: ac84 3e3d 206e 0f3d 5792 4c3b b0a6 68bc
00000340: b895 013d f883 763d a42c 1cbd b2b9 d0bd
00000350: 980f 00be 69d0 c8bd e251 d4bc d711 9e3d
00000360: 1680 58bd 5a9c 86bd db8a a8bd a42e e2ba
00000370: c4e5 153d 7a75 db3d 1efb c03d 3a3d 88bc
00000380: 8d0a c8bb d2e8 dd3c 7b97 963b 7058 473c
00000390: eb6e 1e3d a34a 4c3b aa96 b0bd 9946 55bd
000003a0: f315 8f3c 5f49 b83b e511 89bd a9bf c7bd
000003b0: 7fe1 f8bd 163b a7bd 2f3f 39bd fc29 33bd
000003c0: b02d 31bd c2c2 15bd 1bef 303c 650b b33c
000003d0: 839c dc3c 8f47 80bd 31ee 9ebc 27b0 883c
000003e0: f510 543d 7d66 a43d c246 39bd 5ba3 73bd
000003f0: ff89 e2bc 0c80 773a 98fc ed3c 114b 0dbc

conv2.bias f4 [32]
0.009481225 -0.03704907 -0.0056242873 -0.011506249 0.044075195 -0.02903394 -0.018224258 0.047753494
0.00721211 0.011005165 -0.0032855968 -0.08546042 0.037832428 0.05345747 0.12836637 0.06039247
-0.0392647 -0.011060392 -0.019258669 0.048008278 0.030363081 -0.08140419 -0.019341698 0.05572738
-0.00068943494 0.049404316 0.054922417 0.032408148 0.035769872 0.019731639 -0.09016394 0.03157685
00000000: 2457 1b3c c4c0 17bd f14b b8bb b584 3cbc
00000010: 3188 343d 96d8 edbc 0a4b 95bc 2b99 433d
00000020: 9053 ec3b 024f 343c 2b53 57bb df05 afbd
00000030: 2df6 1a3d 38f6 5a3d 7972 033e 185e 773d
00000040: 06d4 20bd a536 35bc 5bc4 9dbc 54a4 443d
00000050: ffbb f83c 3db7 a6bd 7b72 9ebc 6542 643d
00000060: 32bb 34ba 2e5c 4a3d 54f6 603d 68be 043d
00000070: 6e83 123d 3fa4 a13c dfa7 b8bd ba56 013d

conv3.weight f4 [1, 32, 5, 5]
0.026777372 0.029741608 0.030180661 0.041034065 0.03450448 -0.012182706 -0.017654868 -0.024823325
-0.0011529607 -0.0015045983 -0.012722767 -0.041686457 -0.06373274 -0.0679267 -0.031057253 -0.0009852626
-0.006892598 -0.005186737 -0.018631013 -0.0089968 0.014544107 0.032673743 0.05977751 0.049335152
0.028877899 0.0060358355 -0.02963208 0.012079648 0.025087446 -0.025934732 0.019319413 -0.008578558
0.016416093 -0.016707638 0.0025516031 -0.039694343 0.023551553 -0.0055565294 0.027429743 -0.015571686
0.009582844 -0.026776047 -0.025526367 -0.019734249 0.013083067 0.025341535 0.027086621 -0.007304278
-0.0026817874 0.023570787 -0.013818126 -0.011637525 0.026880423 -0.029831043 -0.017087977 -0.019600887
-0.007448862 -0.026017275 0.008223382 -0.02466227 -0.015426261 -0.034362853 0.023511041 -0.021740038
-0.0042553116 -0.020982012 -0.004781467 -0.006873721 -0.011567489 -0.00046988195 0.0149467345 0.028963326
0.026027365 -0.026306266 -0.0041052825 -0.060056254 -0.028229715 -0.009681197 -0.015872806 -0.0085782865
0.0020859682 0.051971838 0.055576112 0.0024726798 0.014879941 0.07450069 0.08469416 0.0060544284
-0.042063538 0.017363532 0.013875047 -0.017387385 -0.083827004 -0.064809315 0.031279977 -0.012261768
-0.03053851 -0.039804645 -0.0049637645 0.056647435 0.00046551382 0.002378772 0.011805985 -0.0049184593
0.0023231085 -0.014654982 0.026724763 -0.0012372173 0.0256813 -0.020578543 -0.033143185 0.00042630572
-0.034325775 0.02217536 0.023387818 0.02233132 0.025770096 0.007063209 0.009891468 -0.0063802684
0.028139377 0.008854458 -0.011622048 -0.036551908 0.0018134563 -0.004158527 0.041498527 0.03995847
0.023362543 -0.0020110062 0.017662186 -0.000673363 0.003548078 0.0076477476 0.0011687945 -0.010764923
-0.017373106 -0.04656328 -0.014174608 0.023314161 0.0062878067 -0.04727764 -0.033604674 0.011018656
0.017382715 0.012243838 -0.018936113 -0.0027878038 0.027941812 0.010099566 0.0063435417 -0.004771608
0.0073972456 0.00078764954 -0.004557146 0.007882223 0.004431096 -0.007330169 0.021763926 0.03278291
0.019454818 -0.012392631 -0.029819932 -0.027055198 -0.016730525 -0.0071135215 0.015322984 0.010703969
0.03169494 -0.03838885 -0.024744015 0.030644812 -0.022718847 0.024920883 0.0018367454 -0.006430356
0.023171695 0.026329424 -0.013595591 -0.00057831337 0.030164171 0.026573211 0.012394882 -0.021130102
-0.023698043 0.02172526 0.016909894 -0.0061076195 0.033970464 0.024307609 -0.0101355035 0.012983659
0.03308702 0.020863643 -0.016476255 -0.034849443 0.009518002 0.01282791 -0.033938978 0.0068609538
-0.021805082 0.014174171 -0.017276514 -0.026921315 0.033991415 0.021142181 -0.014304477 -0.025514502
0.023893476 -0.022088107 -0.010487461 -0.015765613 0.010527161 -0.0022665125 0.013131396 -0.019798357
0.026089955 0.0040800353 -0.024427189 -0.025837947 0.021478344 -0.015274952 0.0098911645 0.00089878234
-0.016428817 0.032959223 -0.010417032 0.013812029 0.01839824 0.0036253445 0.03216161 -0.022862436
-0.005405798 -0.007328265 0.010855456 -0.016704781 -0.022207951 -0.03403995 0.016915003 0.0126688415
-0.032191973 0.006301313 -0.026271662 -0.029247956 0.019953812 -0.018371735 0.02956849 0.030884547
-0.003125032 0.0067145135 -0.031190995 -0.015428148 -0.0022944035 0.007240884 0.014069751 0.018787783
00000000: 385c db3c aca4 f33c 6f3d f73c 5613 283d
00000010: 9254 0d3d f999 47bc f1a0 90bc 495a cbbc
00000020: f11e 97ba f135 c5ba 2773 50bc 6bbf 2abd
00000030: 5086 82bd 271d 8bbd c86b febc ed23 81ba
00000040: 4ddb e1bb 81f5 a9bb 11a0 98bc 5067 13bc
00000050: 684a 6e3c e7d4 053d 43d9 743d a813 4a3d
00000060: 5891 ec3c 42c8 c53b fabe f2bc b7e9 453c
00000070: 3084 cd3c 1375 d4bc bf43 9e3c 158d 0cbc
00000080: 0b7b 863c 75de 88bc cc38 273b 8996 22bd
00000090: 30ef c03c 8c13 b6bb 57b4 e03c 6320 7fbc
000000a0: 5c01 1d3c 7159 dbbc ac1c d1bc b8a9 a1bc
000000b0: 5c5a 563c 0d99 cf3c c3e4 dd3c ba58 efbb
000000c0: edc0 2fbb 8617 c13c 6c65 62bc 51ab 3ebc
000000d0: 5534 dc3c 3b60 f4bc 16fc 8bbc 0a92 a0bc
000000e0: 9515 f4bb 2e22 d5bc 5dbb 063c 8708 cabc
000000f0: 6ebe 7cbc 10c0 0cbd 3a9a c03c 2a18 b2bc
00000100: 2470 8bbb 78e2 abbc daad 9cbb f33c e1bb
00000110: 9185 3dbc 7d5a f6b9 26e3 743c 7f44 ed3c
00000120: 5737 d53c 3d80 d7bc 9b85 86bb 8cfd 75bd
00000130: 0142 e7bc e29d 1ebc b007 82bc f18b 0cbc
00000140: bdb4 083b 6ce0 543d c7a3 633d af0c 223b
00000150: ffca 733c d193 983d 2274 ad3d 3a64 c63b
00000160: d14a 2cbd f73d 8e3c 2a54 633c fd6f 8ebc
00000170: 7ead abbd bfba 84bd 6f1f 003d 95e5 48bc
00000180: e62b fabc 320a 23bd 13a7 a2bb 2407 683d
00000190: 3510 f439 2ce5 1b3b e46d 413c 072b a1bb
000001a0: 4b3f 183b 731b 70bc e4ed da3c 202a a2ba
000001b0: 9761 d23c 5594 a8bc 26c1 07bd c981 df39
000001c0: 2f99 0cbd 1aa9 b53c cf97 bf3c 2cf0 b63c
000001d0: cf1b d33c 7e72 e73b d30f 223c 9211 d1bb
000001e0: 8d84 e63c 4a12 113c 676a 3ebc 74b7 15bd
000001f0: 7fb1 ed3a 4144 88bb 5cfa 293d 7eab 233d
00000200: ce62 bf3c 16cb 03bb 4ab0 903c a084 30ba
00000210: df86 683b f599 fa3b 3c32 993a 5c5f 30bc
00000220: 0b52 8ebc 23b9 3ebd 9d3c 68bc 57fd be3c
00000230: f209 ce3b 33a6 41bd 0ea5 09bd 9887 343c
00000240: 3266 8e3c 619a 483c e81f 9bbc 96b3 36bb
00000250: 3ae6 e43c a678 253c 7cdd cf3b 265b 9cbb
00000260: 9864 f23b 447a 4e3a 1d54 95bb 7124 013c
00000270: ba32 913b ea31 f0bb 434a b23c 5f47 063d
00000280: b65f 9f3c 760a 4bbc ee48 f4bc dda2 ddbc
00000290: 740e 89bc 8b18 e9bb 410d 7b3c b35f 2f3c
000002a0: 8ed2 013d a03d 1dbd f6b3 cabc d40a fb3c
000002b0: e01c babc e126 cc3c f3be f03a bcb5 d2bb
000002c0: 91d2 bd3c ceb0 d73c 0bc0 5ebc f499 17ba
000002d0: da1a f73c 10b0 d93c e713 4b3c 0919 adbc
000002e0: 6622 c2bc 2cf9 b13c 9e86 8a3c 6d22 c8bb
000002f0: 9d24 0b3d c020 c73c 620f 26bc 6ab9 543c
00000300: 4186 073d 3bea aa3c 36f9 86bc 4abe 0ebd
00000310: 65f1 1b3c 272c 523c 9903 0bbd dad1 e03b
00000320: 92a0 b2bc c83a 683c 7a87 8dbc 178a dcbc
00000330: 953a 0b3d 5e32 ad3c 535d 6abc ca03 d1bc
00000340: 40bc c33c 1ef2 b4bc 9ad3 2bbc e326 81bc
00000350: 1d7a 2c3c c589 14bb 1125 573c 2a30 a2bc
00000360: 9aba d53c d1b1 853b 871b c8bc 1aaa d3bc
00000370: 5af3 af3c cb43 7abc 8d0e 223c 439c 6b3a
00000380: ba95 86bc 4000 073d 33ac 2abc d94b 623c
00000390: e8b7 963c 3097 6d3b e4bb 033d 014a bbbc
000003a0: 1f23 b1bb f121 f0bb 15db 313c 77d8 88bc
000003b0: 73ed b5bc 7a6d 0bbd 5591 8a3c f990 4f3c
000003c0: bbdb 03bd 3f7b ce3b ab37 d7bc 6999 efbc
000003d0: 2d76 a33c 5280 96bc 9e39 f23c 9701 fd3c
000003e0: 56cd 4cbb 6c05 dc3b 4284 ffbc 58c6 7cbc
000003f0: b45d 16bb f044 ed3b d084 663c d6e8 993c
